model.pth (torch, 408960 bytes, 4 tensors)

fc1.weight f4 [128, 784]
000000 ec 95 f7 bb 24 16 3d bc 82 81 e4 bc 07 d5 28 3d
       -0.007555714 -0.011540923 -0.027893785 0.041218784
000010 b8 07 2c 3c 2a df b7 3c ff f6 ec 3c 53 40 36 3c
       0.010499887 0.02244528 0.02892637 0.0111237345
000020 01 9f 34 3c db 2c 2a 3d 05 51 64 3c d1 f7 71 bc
       0.011024238 0.041546684 0.013935332 -0.014768557
000030 97 cd 8e 3b 72 5e 64 bc 93 6d 75 3c 94 d2 da bc
       0.0043580043 -0.013938533 0.014979738 -0.02671174
000040 57 8f cd bc 7b 9b e4 bb 08 c4 48 bc 7f 07 d5 3c
       -0.025092764 -0.0069765425 -0.012253769 0.026004551
000050 30 fd 00 3d b2 64 1d 3d 7f 16 ec 3c f9 64 d5 bc
       0.03149146 0.03842611 0.02881932 -0.026049124
000060 bc 14 1e 3c c5 63 db bb 99 e8 c7 bc 99 30 a7 bc
       0.009648498 -0.006695243 -0.024402903 -0.020408915
000070 01 a4 1c bc 47 01 08 3d d7 9e 16 bc 5c 31 4f bb
       -0.009560586 0.033204343 -0.009193144 -0.0031615114
000080 0a 19 cc 3c 21 4f 51 3c ae 1a dc bc 38 68 ff 3a
       0.024914283 0.012775213 -0.02686819 0.0019486016
000090 d7 8f a2 bc 2b 7d c8 bc 4d 1c 58 bc 72 b6 e4 bc
       -0.019843979 -0.024473747 -0.013190341 -0.027919028
0000a0 b8 21 b9 3c db 29 6b 3a 83 ff d3 3c 5c 98 0b 3b
       0.022599086 0.00089707755 0.025878673 0.002130053
0000b0 6f de f5 3c 8f e4 24 3c 67 69 29 3d 1e 45 88 3c
       0.030013291 0.010064258 0.041360285 0.01663452
0000c0 38 94 0b 3b 44 85 e8 3c 26 97 e8 bc f7 07 27 3d
       0.0021298062 0.028383859 -0.028392386 0.04077908
0000d0 88 56 41 bc d2 b8 0b 3d 47 e5 22 3d da 67 18 3d
       -0.011800416 0.034111805 0.039769437 0.037208416
0000e0 2f 3f ed 3c b7 4c 10 3d 33 c0 a3 3b 42 4f 29 3d
       0.028960792 0.03522941 0.004997277 0.04133535
0000f0 e1 00 7f 3c dc 7a 37 3c 72 f0 a6 bc 33 ae bf bb
       0.015564174 0.011198726 -0.020378325 -0.0058496236
000100 cb 76 92 bc 73 38 2d bc 76 db 96 3c f6 da 6e bc
       -0.01787891 -0.010572541 0.018415194 -0.014578572
000110 38 10 61 3b 0d d4 19 3c c7 e4 85 bc 5e 1f 1e 3d
       0.0034341943 0.009388936 -0.016344441 0.038604133
000120 3e 57 b5 bc 61 c3 7d bc f2 69 da b9 33 ef 11 3d
       -0.022136327 -0.0154884765 -0.00041659136 0.03562851
000130 18 ff 2b 3c 4f b9 df 3c ff b3 12 bb 83 78 cb bc
       0.010497831 0.027310042 -0.0022385118 -0.024837738
000140 45 e5 05 bc 50 15 12 3d 83 ab 95 3c 85 fc a1 3c
       -0.008172338 0.035664856 0.01827026 0.019773731
000150 fe 21 88 3c b5 a3 a7 bc 78 4b 45 3c 33 a9 1a bc
       0.016617771 -0.020463804 0.012041919 -0.009439754
000160 3b 86 12 3d 1e 03 9b bc b8 f9 a9 3c c1 03 cc 3c
       0.035772543 -0.018922385 0.020748958 0.024904134
000170 7b f1 c1 3b 06 0e b6 3c 69 0e 52 bc ea 2d 0d 3d
       0.0059186793 0.022223484 -0.012820818 0.034467615
000180 c3 f0 7d 3a 5b 93 45 3c 1d 0a 51 3c 02 69 5d 3b
       0.00096870604 0.012059058 0.012758759 0.0033784513
000190 46 c0 87 3b 2e 8f 62 bc 2f 6c 04 3d 10 a1 f5 bb
       0.004142794 -0.013828082 0.032329734 -0.007496007
0001a0 9c f0 eb bc 93 f7 2d bc 7b 60 d3 3b f5 99 b1 3c
       -0.028801255 -0.010618108 0.0064507104 0.021679858
0001b0 c7 0b ca bc 1e 6a 75 bc be e4 98 b9 3c eb 87 3c
       -0.024663819 -0.014978914 -0.00029162125 0.01659166
0001c0 58 55 db bc eb 7a d8 bc 6d 8d 2f bc 29 a3 0b 3d
       -0.026774094 -0.0264258 -0.010714871 0.03409115
0001d0 37 d0 05 bc 8e f3 ac bc 81 42 d9 3c 80 40 05 3d
       -0.008167318 -0.02111223 0.02652097 0.032532215
0001e0 03 28 c1 ba ff eb ad bb b9 18 e3 3c bf f5 ad bc
       -0.0014736656 -0.005307674 0.02772175 -0.021235345
0001f0 05 8e 2c bc 62 e3 ac bc ff 48 d9 bb 36 8b 00 bb
       -0.010531907 -0.021104518 -0.0066310163 -0.0019614226
000200 f9 f6 0d bd 69 9d 23 bc 9b dc ff 3a 2e fc 9b bc
       -0.03465936 -0.00998626 0.0019520702 -0.019041147
000210 00 f2 cc bb cb 93 fa 3c c7 6f 85 bc 5a 34 4f bc
       -0.0062544346 0.030588051 -0.016288651 -0.012646759
000220 d7 32 9f bb f8 14 19 3d 28 15 e9 bc ab b3 bc bc
       -0.0048583555 0.037373513 -0.02845247 -0.023034891
000230 57 b7 c7 3b ef 2d ac 3c 48 39 c5 3c 91 1f cc bc
       0.006094854 0.021017997 0.024075165 -0.024917396
000240 69 12 ff 3b 6c 66 e8 bc ea 5d 0f 3d 45 b1 b0 bb
       0.007784177 -0.028369151 0.035001673 -0.005392226
000250 cc d2 5e 3c 03 9a 7f bc 13 64 0c 3d a3 26 ea 3b
       0.013600063 -0.015600684 0.034275126 0.007145719
000260 d1 aa 4d bc 6a 48 a9 ba da a5 e4 3b 7f 58 8e 3c
       -0.012552933 -0.0012915258 0.006977779 0.017376183
000270 49 64 ed bb 48 1c d2 bc 67 44 81 3c af 23 6d bc
       -0.007244621 -0.025648251 0.015779687 -0.01447384
000280 8b a9 d9 bc 50 fc 13 3d 7d 6c d2 3b 54 ef 49 3c
       -0.026570102 0.036129296 0.006421624 0.012325127
000290 13 28 18 bb c9 0d 89 bc 75 1a b3 bc 51 b3 15 3d
       -0.0023217245 -0.016730206 -0.021863202 0.036547963
0002a0 b3 2c c8 3c 17 5a a4 bb 7c 35 1f 3c 4f 65 04 3d
       0.024435377 -0.0050156224 0.0097173415 0.032323178
0002b0 0b d2 7b ba a8 4c 7d 3c b4 29 7c 3a f0 e1 a3 bc
       -0.0009606189 0.015460171 0.00096192514 -0.020005196
0002c0 50 7c 20 3d c4 1e fb 3c 46 f4 0f 3d 0b b2 65 bc
       0.039181054 0.030654319 0.035145067 -0.0140194995
0002d0 ca 8d 9d bc e7 44 2b 3d 45 1b 96 bc a8 55 0d bd
       -0.01923265 0.041813757 -0.01832355 -0.034505516
0002e0 b6 ab b3 bc 40 7a 5e 3b ed 12 06 3d b4 0e 0f 3d
       -0.021932464 0.0033947378 0.032732893 0.03492613
0002f0 6b 46 79 3b 80 2a b2 bc d2 db 08 3d 6e 70 08 3d
       0.0038036357 -0.021748781 0.033412762 0.033310346
000300 ad 06 be 3c 18 91 af 3c 76 e9 bd 3c 87 0f 02 3d
       0.023196543 0.02143149 0.023182612 0.03175309
000310 84 11 c6 38 09 91 17 3d c8 52 fc 3c b4 15 00 3d
       9.444638e-05 0.03700355 0.030801192 0.031270698
000320 52 b6 1b 3b 4b ef a5 3c d4 a8 a0 3c d5 b3 b9 3c
       0.0023759794 0.020255705 0.019611754 0.022668758
000330 1e 2f d9 3b 9c 6e e5 bb 67 92 da 3c 24 da a9 bc
       0.0066279313 -0.007001711 0.026681138 -0.0207339
000340 c6 36 dc 3b 8c 0b d6 3c 99 7c d4 3b b6 f6 5a 3b
       0.0067203967 0.026128553 0.0064845798 0.0033411211
000350 bf 38 2c 3b 83 87 ac 3c dd 45 b3 bc cf cc db bc
       0.002627894 0.02106071 -0.0218839 -0.026831059
000360 d0 b4 1f 3d 60 f7 bf bb b6 be c2 3c bd 03 71 3b
       0.038990796 -0.005858347 0.023772579 0.003677591
000370 3b 0f db bb 48 48 1f 3d ba 9b 3a bc 01 d9 27 bc
       -0.006685165 0.038887292 -0.011389667 -0.010244609
000380 9c ba e4 bc 58 ae f5 bb 54 40 9a ba bf 68 16 3d
       -0.027921014 -0.00749759 -0.0011768439 0.036720987
000390 a6 2b 86 bb e8 ee c0 3c 75 b6 f0 bb 35 82 a2 bc
       -0.004094559 0.02355142 -0.0073459693 -0.019837478
0003a0 07 3b c8 3b 2c 6a 2d 3d e8 6f 72 3c d0 42 2a bc
       0.006110552 0.04233758 0.014797188 -0.010391906
0003b0 8d 0e 16 3c 0a 68 cc bc 24 e9 18 bd 9a 3e 07 bd
       0.009158743 -0.024951953 -0.037331715 -0.033018686
0003c0 c3 ce 05 3b 94 e2 23 3b 2b 37 4c 3c 3b d0 18 3d
       0.002041743 0.0025006877 0.012464325 0.03730796
0003d0 63 f0 51 3c e9 4b 8c bc 6f 59 35 bb cb 77 2a 3d
       0.01281366 -0.01712604 -0.0027671715 0.04161815
0003e0 1b d6 16 bc ab 91 2a 3d d4 0c 96 bc c7 4e 8d 3c
       -0.00920632 0.041642826 -0.018316664 0.017249478
0003f0 05 cf 1f bc 6e 53 ad bc 71 7d ba 3c b4 3d 24 bc
       -0.009753947 -0.021157946 0.022764893 -0.010024477

fc1.bias f4 [128]
000000 80 8f 2c bb f1 2f 56 bc 86 e3 fd bc 78 8f f2 bb
       -0.002633065 -0.013072954 -0.03099228 -0.0074023567
000010 d4 c1 a6 3c 50 a4 78 bc ba f0 a1 bc 93 ed 40 3b
       0.020356096 -0.015175894 -0.019768108 0.002943848
000020 9c 83 1c bc 13 4b 8b bc e5 1d 66 bd 48 2a ad bb
       -0.0095528625 -0.017003572 -0.056180853 -0.0052845813
000030 02 a3 a8 bc c7 2e b5 3c 85 7a ab 3b d1 3d af 3c
       -0.02058554 0.022117032 0.0052331113 0.021391781
000040 41 5d e8 bc 6f c5 c6 3c a5 c4 c4 bc 44 ea 32 bc
       -0.02836478 0.024264066 -0.024019549 -0.010920111
000050 10 0e 00 bc 77 97 8e 3c 4f 35 80 3c 4f a3 16 bd
       -0.007815853 0.017406208 0.01565042 -0.036776837
000060 5d c8 b5 bc 7b a0 44 bc 51 61 04 b8 5d 51 21 bd
       -0.022190267 -0.012001152 -3.1561885e-05 -0.039384235
000070 a4 f9 ee bc 32 04 3d bd 07 c1 50 bc 60 b9 5a 3b
       -0.029171772 -0.04614658 -0.012741334 0.0033374652
000080 a7 cc fd 3b 49 5b 58 bc 23 e3 88 bb b5 8d 62 3d
       0.0077453437 -0.013205358 -0.0041774674 0.055310924
000090 e8 b9 f3 bb f3 16 1b b8 c3 81 75 3b 05 e8 d1 bc
       -0.0074379332 -3.6976253e-05 0.0037461377 -0.02562333
0000a0 34 54 76 bc 68 6b a6 bb 53 9a 13 3c 82 7a b5 3b
       -0.015034724 -0.005078722 0.009008962 0.0055382857
0000b0 a0 d5 a1 bc a3 28 1d bc a9 29 f0 bb aa 0d ae bb
       -0.019755185 -0.009592208 -0.007329185 -0.0053116875
0000c0 5e e2 12 bd d9 0d 82 3b 5e ee 53 3d d4 19 74 bc
       -0.03586041 0.003968936 0.051740997 -0.014898736
0000d0 56 cb 2a bd b1 91 00 bd 78 6e 25 bd c2 2e a3 bb
       -0.041697823 -0.031388942 -0.040388554 -0.004979939
0000e0 50 90 2b 3c 66 a8 99 3b 34 e6 1c 3c b8 e6 9b bc
       0.0104714185 0.004689264 0.009576369 -0.019030914
0000f0 d2 36 36 bc 22 4e 9b bc c5 48 08 bd 8e e3 57 3c
       -0.011121469 -0.018958155 -0.033272523 0.013176812
000100 4b 68 d5 bc e7 23 a6 3b d6 34 cb 3b be 40 cb 3c
       -0.026050707 0.005070198 0.006201367 0.024811145
000110 a8 52 8c bc a1 8f db bc 36 bf 3b bb 47 67 c4 3c
       -0.017129257 -0.026801886 -0.0028647906 0.023975028
000120 3f f9 6b bc 75 3a 70 3b 20 b5 07 3c eb 3f 0f 3d
       -0.014402687 0.0036655937 0.00828293 0.034973066
000130 a4 e3 51 3c 29 0a f5 38 e7 d4 b9 3c 79 6d 93 39
       0.012810621 0.00011684403 0.022684528 0.00028119588
000140 f1 7d 0f 3b 91 c7 2e 3c ea 18 31 3d d8 88 24 bd
       0.0021895135 0.0106676975 0.04323665 -0.040169567
000150 60 b0 be bc c3 9c 0b 3d ce bf 7b 3c a0 ee d1 bc
       -0.023277462 0.034085046 0.015365554 -0.02562648
000160 b8 23 06 bc 54 18 de bc 79 04 6b bc 11 59 74 3d
       -0.008187227 -0.02711121 -0.014344328 0.059655253
000170 15 d4 2a 3d 0a 8b 5a 3d 2a 88 29 bd ec e1 05 3c
       0.041706163 0.053355254 -0.04138962 0.00817154
000180 61 8b d4 bc db c3 ad 3a 83 93 23 bd ed 6e 15 bc
       -0.025945367 0.0013257222 -0.0399356 -0.009120685
000190 54 5e 17 bd 52 85 9a 3c d6 2a d7 3a e7 70 f3 3c
       -0.036955193 0.0188624 0.0016415964 0.029716922
0001a0 bc 15 a4 bc 34 20 a5 3c 59 c1 98 bc d3 a4 2d 3c
       -0.020029895 0.020156957 -0.018646883 0.010598379
0001b0 8c 71 40 3a 14 a5 f7 3c 3f c0 8e 3a 41 a3 b1 bb
       0.00073411386 0.030230083 0.0010891034 -0.0054210727
0001c0 8d 2b 01 3d 17 dd ae 3c 4b df da bc 2c b2 30 bd
       0.031535674 0.021345658 -0.026717803 -0.043138668
0001d0 b0 fe 02 39 39 30 04 bd 65 68 f9 bb a5 35 40 bc
       0.00012492645 -0.03227255 -0.0076113218 -0.01173154
0001e0 03 d9 bb bc 9e 7a 07 bd 60 8e b7 bc 84 3e d5 bb
       -0.022930628 -0.03307592 -0.022406757 -0.0065076966
0001f0 b1 fa 03 3d 17 8b b5 bc b2 19 2f 3c 52 26 15 bd
       0.0322215 -0.02216105 0.010687279 -0.0364135

fc2.weight f4 [10, 128]
000000 e3 06 46 3d 68 07 a1 3d 83 81 9f be 59 81 39 3e
       0.04834641 0.07862741 -0.31153497 0.18115748
000010 47 3a 18 bd 73 14 24 be 5c 88 b7 bd 63 12 b4 3c
       -0.037164953 -0.16023426 -0.08961555 0.021981424
000020 0f d1 3d 3e 26 ba b6 bd a3 89 93 be bb fb 85 3d
       0.18536781 -0.08922224 -0.28815946 0.065421544
000030 58 67 9e 3c cd 13 a9 be 0c 3b 0a 3d 1d f0 99 3b
       0.019336388 -0.3302292 0.033747718 0.004697813
000040 45 b2 b6 bc 17 ed 05 3e d2 07 6f bd 25 e5 ea ba
       -0.022301802 0.13078724 -0.058357067 -0.0017921074
000050 e4 4e c5 bd 5e 4c ff 3b 38 26 03 3e 86 6b ef bd
       -0.09634188 0.007791086 0.12807548 -0.1169043
000060 13 b6 08 3b 86 2b 20 be 56 f6 0e 3d 2d 28 99 b9
       0.0020860478 -0.15641603 0.034902893 -0.00029212367
000070 95 1e 8d 3c 34 21 36 3d 76 f8 3d 3e cb 75 6e 3d
       0.017226497 0.04446526 0.18551812 0.058217805
000080 af c6 10 be a9 1c 8e 3c b0 57 ce be 03 1b 24 3e
       -0.14138292 0.01734765 -0.40301275 0.16025929
000090 b2 28 83 bd 75 a2 9d bd 29 23 c0 3b ff ce 40 3b
       -0.064042464 -0.07697002 0.0058635664 0.0029420254
0000a0 cc 36 04 bf ea f3 c7 bd 62 54 27 3e a8 00 8b be
       -0.51646113 -0.0976332 0.16340783 -0.27148938
0000b0 b1 7e ca be 3a 73 49 3c 4a f0 0d bd f4 43 26 3e
       -0.39549783 0.012295539 -0.034652986 0.1623686
0000c0 1b 87 3b 3d a2 aa d0 3d 12 e4 f6 3b 35 16 ad bd
       0.045783143 0.101887956 0.0075345123 -0.08451501
0000d0 33 89 28 3d 24 a5 67 3b 29 66 b2 3c bc 05 59 3d
       0.04114647 0.0035346234 0.02177723 0.052983984
0000e0 64 6c 4b 3e 6e 06 15 3e 0a 4b 33 3c d6 59 a1 bd
       0.19865566 0.14553234 0.010943184 -0.07878463
0000f0 7d fc cf 3d 35 db c2 bc 07 f8 a6 be ed 6d 7b 3c
       0.1015558 -0.023786167 -0.32611105 0.015346033
000100 a0 53 a3 bd 32 07 67 bd 7d 8c 0b bf 97 b5 d7 bd
       -0.079749346 -0.056403346 -0.54511243 -0.105326824
000110 eb 9b 9f 3d ef 2d 3b be 5f 43 e0 3d 9c d8 81 3d
       0.07793411 -0.18279241 0.1095035 0.06340143
000120 f6 1c 11 3b 73 bd 47 be 2f cf 2f 3d 7b 4b e2 3d
       0.0022142506 -0.19505863 0.042922195 0.11049553
000130 07 24 5e 3d 3d dd 23 3c 89 38 f1 3d 13 df 0e 3c
       0.054233577 0.010001478 0.11778361 0.008720177
000140 a1 c8 76 3c 24 9a 5e 3d 0b 82 16 be 2a 3c c8 be
       0.015062482 0.05434622 -0.14698045 -0.39108402
000150 32 56 4c 3c 97 e7 e5 bd 8d 62 24 3d 46 20 5d 3c
       0.012471722 -0.11225813 0.040133048 0.013496464
000160 d8 86 9e 3d ed df 01 bb 06 44 20 3e 5a 8d 14 3e
       0.07740563 -0.0019817308 0.15650949 0.14507046
000170 f4 98 b0 3c 3f ea 0d 3e 08 1e c5 bc 3f 05 65 be
       0.021557309 0.13858889 -0.024062172 -0.22365282
000180 ec 45 91 3d 7f 86 a8 be 2c 21 78 be b5 e6 ad 3b
       0.07093415 -0.32915112 -0.24231404 0.0053070434
000190 37 8b 7b be 1a 13 4c 3d 15 cb 03 bf ef b9 31 3e
       -0.24564825 0.049822904 -0.51481754 0.17356084
0001a0 29 87 05 bd d6 f6 8a 3d cf 65 64 bd a8 3b 57 3b
       -0.032599602 0.067853615 -0.055761155 0.0032841954
0001b0 ff 87 24 be 9a 8c 78 be 32 25 1a be cb d1 a6 3c
       -0.16067503 -0.24272385 -0.15053251 0.020363709
0001c0 70 ce f6 3d af bb 87 be 3a 79 5e bd 79 1b 15 3e
       0.120510936 -0.2651038 -0.05431483 0.14561261
0001d0 96 65 97 bc 7a 6e 0d 3d 8c fa 8b 3d aa 69 0d bd
       -0.018481057 0.034529187 0.068348974 -0.034524597
0001e0 e6 b8 00 3d 7f eb dd 3d a2 69 24 3e 05 d2 1a 3d
       0.031426333 0.10835933 0.1605592 0.037797946
0001f0 a6 bc 00 3e fe 08 09 3e 0b 2e 5f bd a4 8d c0 3c
       0.12571964 0.13382336 -0.05448727 0.02350504
000200 33 b3 83 bd 7b b3 0c 3d 03 55 a7 bd 69 0e 8b bd
       -0.06430664 0.034350853 -0.081705116 -0.06789858
000210 67 30 67 3c 46 af f6 bd c4 d1 04 3d 46 36 41 be
       0.014110661 -0.120451495 0.03242661 -0.1886836
000220 81 75 91 3d f3 ae c4 bb 2e ba 24 3d 57 9f 68 be
       0.0710249 -0.006002301 0.040216617 -0.22717033
000230 2e 5a 9c bd 28 b5 cc 3d d8 fd 8d bd 32 97 20 bd
       -0.07634388 0.0999549 -0.069331825 -0.03920669
000240 ff c8 48 be 4a 28 da bd 8b 6d 89 3c 00 b6 9f 3c
       -0.19607924 -0.10652216 0.016775867 0.019495964
000250 04 6e 5d bc 13 11 8a 3d 17 09 8e bd 75 eb b1 3d
       -0.013514999 0.06741538 -0.069353275 0.08687488
000260 a1 eb a6 3c a5 d6 de 3d d6 53 83 3d dc 9e 87 bd
       0.020376028 0.10880784 0.06412475 -0.06622097
000270 e4 df c0 bb c5 54 65 bd 4a 19 d1 bd c2 a1 5a bd
       -0.005886065 -0.055989046 -0.10209902 -0.05337692
000280 93 d7 27 be b3 00 92 3d 19 29 22 3e 4c 31 fe bd
       -0.16390829 0.071290396 0.1583599 -0.124117464
000290 fd 8a 74 be 8c db 97 ba 71 6f f1 3a 86 af b5 39
       -0.23881145 -0.0011585816 0.0018420053 0.00034653785
0002a0 41 18 68 3d 90 17 ec 3d a3 b4 6a be ae 5e eb 3d
       0.056663755 0.11527932 -0.2292047 0.11492668
0002b0 70 d6 c3 3d 70 79 e7 3c 6e 5f 8e 3d 1d f7 1a be
       0.09562385 0.028256148 0.069517955 -0.15133329
0002c0 d6 f7 bb 3d 8e 07 fb 3e 5b 96 d0 bc 28 0a 04 bd
       0.0917813 0.490292 -0.02546232 -0.03223625
0002d0 04 eb 07 bd 64 24 8c bc a7 51 97 bd 02 b3 21 3d
       -0.033183113 -0.017107196 -0.07388621 0.039477356
0002e0 a5 81 56 3e 47 45 2b be b2 d0 28 bd 37 8e dc 3b
       0.20947893 -0.16725646 -0.041214652 0.0067308205
0002f0 0a 64 7a 3c 9c d6 77 3d 6f 99 85 be fc 59 19 be
       0.01528264 0.0605074 -0.26093623 -0.14975733
000300 d4 cd 66 3d 6e e2 99 3d dd d1 e7 3d 44 4e 09 be
       0.056348637 0.07513891 0.11319325 -0.13408762
000310 26 c7 3b 3c fd 34 fe 3d 12 cf 95 bd ce 57 c9 3d
       0.011461055 0.124124505 -0.07314886 0.098312005
000320 47 6e c0 3b ea 5b e2 3d f7 12 3a bd af 10 5d be
       0.005872521 0.110526875 -0.045428243 -0.21588396
000330 f3 e3 95 3d 70 85 a8 3d 51 1e be be 48 d2 ca ba
       0.073188685 0.08228576 -0.37132505 -0.0015474046
000340 3b 56 09 bd 6b 7d 9e 3d c4 15 80 3d cc bf 12 3e
       -0.0335295 0.07738765 0.062541515 0.14330977
000350 dc 20 62 3e be 65 ac be 80 20 6d bd e7 40 bd bc
       0.22082847 -0.33671373 -0.057892323 -0.023102237
000360 ae a7 08 3e 5e e3 5e bd 0e 40 04 bd 62 68 ec be
       0.13345215 -0.054416053 -0.03228765 -0.46173388
000370 b2 ff 61 be ee 46 28 be 6a 05 f4 bc 2c de 71 be
       -0.22070196 -0.16433308 -0.029787738 -0.23619908
000380 75 9c 49 3d 18 47 6d 3d 18 09 92 3d 5e 05 9a be
       0.049221475 0.05792913 0.07130641 -0.3008222
000390 fe 41 1e 3d 15 16 c0 3d ce 8c 0a 3b 3a 3e 68 3e
       0.038637154 0.09379212 0.0021141055 0.22679988
0003a0 b0 96 e4 3c db 2e 9a bd 8d 31 61 3d bd 6a a2 3d
       0.027903885 -0.07528468 0.054978896 0.07930515
0003b0 0a a7 2c bc b2 5d 46 3d f7 1f da bb 9b 04 61 bc
       -0.010537872 0.0484292 -0.0066566425 -0.013734008
0003c0 7b 42 7d bc df 95 96 3d d2 76 28 bd 6b 5d 8a 3e
       -0.015457745 0.073528044 -0.04112894 0.27024397
0003d0 ea 65 e4 bd e7 1e 48 3d 61 d0 04 3e 85 97 1d bd
       -0.11152251 0.048857596 0.12970115 -0.03847458
0003e0 51 52 99 bd d6 87 98 be 97 95 6d be c0 40 63 bb
       -0.07486404 -0.29791135 -0.23201595 -0.0034676045
0003f0 1d 08 35 be da 49 08 3e 78 f7 52 bb 78 01 ef bc
       -0.17678876 0.13309422 -0.003219096 -0.029175505

fc2.bias f4 [10]
000000 bb 8d 97 3d 67 3c 4e bc c0 b4 70 bd 1f 01 a2 3d
       0.0740008 -0.012587643 -0.058766127 0.0791037
000010 e8 8f 30 3d 7c 9f d6 3c f9 a5 6c bd 30 56 fb bc
       0.04310599 0.026199095 -0.05777547 -0.030680746
000020 f3 5a 8d bc 3f d4 67 bd
       -0.017255282 -0.056598898
